…
@@ -422,110 +366,16 @@
     "id": "6VHfWL8qci0u",
     "outputId": "8b140c99-753c-4a71-cf8b-6b9dd92269dd"
    },
-   "outputs": [
-    {
-     "name": "stdout",
-     "output_type": "stream",
-     "text": [
-      "Model: \"unet_simple\"\n",
-      "__________________________________________________________________________________________________\n",
-      "Layer (type)                    Output Shape         Param #     Connected to                     \n",
-      "==================================================================================================\n",
-      "input_1 (InputLayer)            [(None, 256, 256, 3) 0                                            \n",
-      "__________________________________________________________________________________________________\n",
-      "conv2d (Conv2D)                 (None, 256, 256, 64) 1792        input_1[0][0]                    \n",
-      "__________________________________________________________________________________________________\n",
-      "conv2d_1 (Conv2D)               (None, 256, 256, 64) 36928       conv2d[0][0]                     \n",
-      "__________________________________________________________________________________________________\n",
-      "max_pooling2d (MaxPooling2D)    (None, 128, 128, 64) 0           conv2d_1[0][0]                   \n",
-      "__________________________________________________________________________________________________\n",
-      "conv2d_2 (Conv2D)               (None, 128, 128, 128 73856       max_pooling2d[0][0]              \n",
-      "__________________________________________________________________________________________________\n",
-      "conv2d_3 (Conv2D)               (None, 128, 128, 128 147584      conv2d_2[0][0]                   \n",
-      "__________________________________________________________________________________________________\n",
-      "max_pooling2d_1 (MaxPooling2D)  (None, 64, 64, 128)  0           conv2d_3[0][0]                   \n",
-      "__________________________________________________________________________________________________\n",
-      "conv2d_4 (Conv2D)               (None, 64, 64, 256)  295168      max_pooling2d_1[0][0]            \n",
-      "__________________________________________________________________________________________________\n",
-      "conv2d_5 (Conv2D)               (None, 64, 64, 256)  590080      conv2d_4[0][0]                   \n",
-      "__________________________________________________________________________________________________\n",
-      "max_pooling2d_2 (MaxPooling2D)  (None, 32, 32, 256)  0           conv2d_5[0][0]                   \n",
-      "__________________________________________________________________________________________________\n",
-      "conv2d_6 (Conv2D)               (None, 32, 32, 512)  1180160     max_pooling2d_2[0][0]            \n",
-      "__________________________________________________________________________________________________\n",
-      "conv2d_7 (Conv2D)               (None, 32, 32, 512)  2359808     conv2d_6[0][0]                   \n",
-      "__________________________________________________________________________________________________\n",
-      "dropout (Dropout)               (None, 32, 32, 512)  0           conv2d_7[0][0]                   \n",
-      "__________________________________________________________________________________________________\n",
-      "max_pooling2d_3 (MaxPooling2D)  (None, 16, 16, 512)  0           dropout[0][0]                    \n",
-      "__________________________________________________________________________________________________\n",
-      "conv2d_8 (Conv2D)               (None, 16, 16, 1024) 4719616     max_pooling2d_3[0][0]            \n",
-      "__________________________________________________________________________________________________\n",
-      "conv2d_9 (Conv2D)               (None, 16, 16, 1024) 9438208     conv2d_8[0][0]                   \n",
-      "__________________________________________________________________________________________________\n",
-      "dropout_1 (Dropout)             (None, 16, 16, 1024) 0           conv2d_9[0][0]                   \n",
-      "__________________________________________________________________________________________________\n",
-      "up_sampling2d (UpSampling2D)    (None, 32, 32, 1024) 0           dropout_1[0][0]                  \n",
-      "__________________________________________________________________________________________________\n",
-      "conv2d_10 (Conv2D)              (None, 32, 32, 512)  2097664     up_sampling2d[0][0]              \n",
-      "__________________________________________________________________________________________________\n",
-      "concatenate (Concatenate)       (None, 32, 32, 1024) 0           dropout[0][0]                    \n",
-      "                                                                 conv2d_10[0][0]                  \n",
-      "__________________________________________________________________________________________________\n",
-      "conv2d_11 (Conv2D)              (None, 32, 32, 512)  4719104     concatenate[0][0]                \n",
-      "__________________________________________________________________________________________________\n",
-      "conv2d_12 (Conv2D)              (None, 32, 32, 512)  2359808     conv2d_11[0][0]                  \n",
-      "__________________________________________________________________________________________________\n",
-      "up_sampling2d_1 (UpSampling2D)  (None, 64, 64, 512)  0           conv2d_12[0][0]                  \n",
-      "__________________________________________________________________________________________________\n",
-      "conv2d_13 (Conv2D)              (None, 64, 64, 256)  524544      up_sampling2d_1[0][0]            \n",
-      "__________________________________________________________________________________________________\n",
-      "concatenate_1 (Concatenate)     (None, 64, 64, 512)  0           conv2d_5[0][0]                   \n",
-      "                                                                 conv2d_13[0][0]                  \n",
-      "__________________________________________________________________________________________________\n",
-      "conv2d_14 (Conv2D)              (None, 64, 64, 256)  1179904     concatenate_1[0][0]              \n",
-      "__________________________________________________________________________________________________\n",
-      "conv2d_15 (Conv2D)              (None, 64, 64, 256)  590080      conv2d_14[0][0]                  \n",
-      "__________________________________________________________________________________________________\n",
-      "up_sampling2d_2 (UpSampling2D)  (None, 128, 128, 256 0           conv2d_15[0][0]                  \n",
-      "__________________________________________________________________________________________________\n",
-      "conv2d_16 (Conv2D)              (None, 128, 128, 128 131200      up_sampling2d_2[0][0]            \n",
…
